mini_projects/chapter2/mnist_model.pt (torch, 361072 bytes, 6 tensors)

linear_ih.weight f4 [100, 784]
0	0xbcd61ae7	-0.026135875
1	0x3c82d125	0.015968869
2	0x3c432c5c	0.011912432
3	0xbce4b5d1	-0.027918728
4	0x3bae79e5	0.0053245896
5	0x3ce43fd8	0.027862474
6	0xbc73870e	-0.0148637425
7	0xbd065e7c	-0.03280495
8	0xbb68665c	-0.0035461402
9	0xbd0a4165	-0.03375377
10	0x3aab6925	0.00130776
11	0xbc39b1e1	-0.011333914
12	0x3bf3ab17	0.007436167
13	0x3cc5054b	0.024050375
14	0xbc91c2b7	-0.017793043
15	0x3d20f5af	0.039296802
16	0x3cb6910e	0.022285964
17	0xbccfcc91	-0.0253661
18	0x3cd1acb7	0.025595052
19	0xbc0c5c4e	-0.008566929
20	0xbcff549c	-0.031168275
21	0xbc208cfc	-0.009799238
22	0xbd05643b	-0.03256629
23	0xbcb6560e	-0.022257831
24	0x3d03b31c	0.032153234
25	0xbc7fe1ea	-0.015617827
26	0xbc015f2a	-0.007896224
27	0xbc031137	-0.00799971
28	0xbca903b3	-0.020631647
29	0x3cbd0dda	0.023077894
30	0xbbf73681	-0.007544339
31	0xbcce9403	-0.025217062
32	0xbcd65cc5	-0.026167283
33	0xbd85dd13	-0.06536307
34	0xbe019b26	-0.1265684
35	0xbde54303	-0.11194422
36	0xbd6c4276	-0.05768057
37	0xbe01bcf6	-0.12669739
38	0xbd3afd9e	-0.045652024
39	0xbd9874a3	-0.07444122
40	0xbe05fcab	-0.13084666
41	0xbd7133f3	-0.058887433
42	0xbb1ceb69	-0.0023944026
43	0xbe12a5c1	-0.14321043
44	0xbe1e52f4	-0.15461332
45	0xbe757d9f	-0.23973702
46	0xbe26ef48	-0.16302216
47	0xbe4343dd	-0.19068857
48	0xbe7155fb	-0.23567955
49	0xbe4e67b7	-0.20156752
50	0xbe5d75ef	-0.2162702
51	0xbe1beace	-0.1522629
52	0xbce62188	-0.02809216
53	0xbc07db77	-0.008292071
54	0x3c87fdec	0.016600572
55	0xbd0d771a	-0.034537412
56	0x3cca12fe	0.02466726
57	0xbb7ca15c	-0.0038548326
58	0xbbc6bcca	-0.006064986
59	0xbe617239	-0.22016229
60	0xbe5d9fc5	-0.21642978
61	0xbcd325f0	-0.025774926
62	0xbde6efdc	-0.11276218
63	0xbe2c6e94	-0.16839057
64	0xbdf2e35e	-0.11859773
65	0x3c58f896	0.013242861
66	0xbdbfddba	-0.09368463
67	0xbdf53126	-0.11972265
68	0xbe7a8a95	-0.24466927
69	0xbe24b0e5	-0.16083105
70	0xbde47ef2	-0.111570254
71	0xbe3921fb	-0.18079369
72	0xbea49433	-0.32144317
73	0xbe8e61a0	-0.27808857
74	0xbe73adfd	-0.2379684
75	0xbe8c065a	-0.27348596
76	0xbe7c703c	-0.24652189
77	0xbe5388a1	-0.20657589
78	0xbe9dfd9c	-0.3085755
79	0xbe87773d	-0.2645816
80	0x3d5f10b5	0.054459292
81	0x3d99464f	0.074841134
82	0x3bdbb16e	0.006704501
83	0xbca1a623	-0.01973254
84	0x3cbffd91	0.02343634
85	0x3c500185	0.012695675
86	0xbca1141b	-0.019662907
87	0xbe5afb46	-0.21384916
88	0xbe708845	-0.23489483
89	0x3d2885f4	0.041143373
90	0xbdfebc15	-0.124382176
91	0xbe5277af	-0.20553468
92	0xbe9e1a70	-0.30879545
93	0xbe53a0da	-0.20666829
94	0xbe1bcbb7	-0.1521443
95	0xbb0bc42c	-0.0021326644
96	0xbdb6d64b	-0.08927592
97	0xbe5e18c1	-0.2168913
98	0xbe411f67	-0.18859635
99	0xbd163398	-0.036670297
100	0x3d077647	0.033071782
101	0xbd688786	-0.05676987
102	0xbe058db3	-0.13042335
103	0xbe2eeff2	-0.1708372
104	0xbe7b6d32	-0.24553373
105	0xbdf86560	-0.12128711
106	0xbdfcc1e3	-0.123416685
107	0xbe3626d0	-0.17788243
108	0xbc61131e	-0.013737468
109	0x3dc60b9f	0.09670185
110	0xbcbfeb3a	-0.023427594
111	0xbb2998b7	-0.0025878379
112	0x3cd2649a	0.025682736
113	0xbc70ae37	-0.014689974
114	0xbd1dcb1b	-0.038523775
115	0xbd2ab31e	-0.041674726
116	0xbe311211	-0.17292048
117	0x3cc1b4bf	0.023645757
118	0x3d497b88	0.049190074
119	0x3e842e2e	0.25816482
120	0x3dc36ee8	0.09542638
121	0x3d8611d2	0.06546368
122	0x3d165bd1	0.036708657
123	0x3d59d73b	0.053183775
124	0xbcc6dd70	-0.024275512
125	0x3d8204f2	0.063485995
126	0xbc585fb4	-0.013206411
127	0xbdea9b04	-0.11455348
128	0xbdb877f2	-0.09007253
129	0xbd291760	-0.041282058
130	0xbd1a12a0	-0.03761542
131	0x3ca382cc	0.01995983
132	0x3d883e52	0.06652512
133	0x3cd2e5c3	0.025744325
134	0xbd4c43ef	-0.049869474
135	0xbdcd67fe	-0.100296006
136	0x3e03678f	0.12832473
137	0x3daf6ef2	0.08566083
138	0x3d4a2115	0.049347956
139	0x3d0fae6e	0.03507846
140	0x3c496365	0.012291764
141	0x3cbf8a87	0.023381485
142	0xbdda754f	-0.10666906
143	0x3ddf6454	0.10907808
144	0xbce57df8	-0.028014168
145	0x3cdd7fc4	0.027038462
146	0x3d42bc8b	0.04754309
147	0x3d0d229f	0.034456845
148	0x3d3182ab	0.043337505
149	0xbd68d991	-0.056848112
150	0xbd46253a	-0.048375346
151	0xbd4517ef	-0.048118528
152	0xbe0882b5	-0.13331111
153	0xbd175cd4	-0.036953762
154	0xbd5fb0d8	-0.05461201
155	0xbd641842	-0.055687197
156	0x3dc1b06c	0.09457478
157	0x3d3d854b	0.046269696
158	0x3d91cbce	0.07118951
159	0x3cfb5cf9	0.030683981
160	0x3d8c25a1	0.06843115
161	0x3dffb431	0.12485541
162	0x3d4ca9b6	0.049966536
163	0x3d5565b7	0.052098956
164	0x3de07b22	0.10960986
165	0x3e261386	0.16218385
166	0xbce8efd1	-0.028434666
167	0x3c900c55	0.017584005
168	0xbc86be5c	-0.016448192
169	0xbcb19bb5	-0.021680692
170	0x3d0857c7	0.033286836
171	0x3dc992cf	0.09842455
172	0x3cfcaefe	0.030845162
173	0x3c8df29e	0.017327603
174	0xbd92086b	-0.07130512
175	0xbb6dd5e4	-0.0036290819
176	0xbe09dd5d	-0.1346335
177	0xbdfc9bc0	-0.123343945
178	0xbd8ddbe7	-0.06926709
179	0xbdc278e6	-0.09495716
180	0xbe0ab03d	-0.13543792
181	0xbd40df8b	-0.047088187
182	0x3ce16f0e	0.027518775
183	0x3cd8e6eb	0.026477298
184	0x3dad9a5b	0.084767066
185	0x3db01d79	0.085993715
186	0x3dde157b	0.10843941
187	0x3d76ce3a	0.060255267
188	0x3d59f5bd	0.05321287
189	0x3d3aa547	0.045567777
190	0xbd5a5577	-0.053304162
191	0x3dbb5d00	0.09148598
192	0xbd29b6b1	-0.041433994
193	0xbd2e8988	-0.04261163
194	0x3e047428	0.12934935
195	0xbd8007e6	-0.062515065
196	0xbcf3723e	-0.02971756
197	0xbc7a6801	-0.0152835855
198	0x3c3e8b33	0.011629867
199	0x3df6ca27	0.12050276
200	0x3e0f3e27	0.13988553
201	0x3d536ded	0.051618505
202	0x3bce2dea	0.0062920945
203	0xbdeb02ae	-0.114751205
204	0xbe8be6fd	-0.27324668
205	0xbe2fa043	-0.17150979
206	0xbd66e8bb	-0.056374293
207	0xbd989cee	-0.07451807
208	0xbd695926	-0.056969784
209	0x3d64e6bf	0.05588412
210	0xbbd7a03d	-0.006580381
211	0xbd488a70	-0.04896015
212	0xbdc80974	-0.09767428
213	0xbae13378	-0.0017181477
214	0x3d2349f0	0.039865434
215	0xbd376e5e	-0.04478299
216	0x3c5bb226	0.013409173
217	0x3d23a8ce	0.039955907
218	0x3d6d1380	0.057879925
219	0x3d633f61	0.055480365
220	0x3d8c6ff0	0.06857288
221	0xbd8e2210	-0.06940091
222	0x3db22070	0.08697593
223	0xbccc9e1d	-0.024977738
224	0xbe5c6c3d	-0.21525665
225	0x3d697de0	0.05700481
226	0x3d11ed02	0.03562642
227	0x3d8dec46	0.06929831
228	0x3d79b864	0.060966864
229	0xbda473a2	-0.08029868
230	0xbd601569	-0.05470792
231	0xbe826ea8	-0.2547505
232	0xbe64efae	-0.22357056
233	0xbd9dcca5	-0.077050485
234	0xbdb55026	-0.08853178
235	0xbe14c57a	-0.14528456
236	0xbcd709a6	-0.026249718
237	0x3bf23c38	0.0073924325
238	0xbdb088b5	-0.08619825
239	0xbdf087ae	-0.11744629
240	0xbdb7c191	-0.08972467
241	0xbdca42cf	-0.09876024
242	0x3cab1ecf	0.020888714
243	0xbc38268e	-0.011239661
244	0x3d04b8c2	0.03240276
245	0x3c8b961a	0.017039347
246	0xbdff957a	-0.12479682
247	0x3af451a9	0.0018640059
248	0x3e349ed8	0.17638719
249	0x3dec80af	0.11547982
250	0x3de564c3	0.112008594
251	0xbbd951ca	-0.0066320645
252	0xbc68a7a1	-0.014200122
253	0xbc4eb484	-0.0126162805
254	0xbd9749bc	-0.073871106
255	0xbd8c0c2b	-0.06838258

linear_ih.bias f4 [100]
0	0x3e4325fe	0.19057462
1	0xbe09707f	-0.1342182
2	0x3c37d0e8	0.011219241
3	0xbc6e4fb4	-0.01454537
4	0xbcd9ffd4	-0.026611246
5	0x3d3e89f1	0.04651827
6	0x3cb82898	0.022480294
7	0xbd2c7fa9	-0.042113934
8	0xbd3ece6b	-0.046583574
9	0x3c911ea3	0.017714804
10	0xbcfbf76c	-0.030757628
11	0x3d3ec1eb	0.046571653
12	0x3df86af1	0.121297725
13	0xbdc62425	-0.09674863
14	0xbb4b2515	-0.0030997444
15	0x3d9308f1	0.0717944
16	0xbe2a2dc9	-0.16619028
17	0x3c8326b9	0.016009675
18	0x3d1c72a5	0.03819527
19	0xbcf2c986	-0.02963711
20	0xbd2e8432	-0.04260654
21	0xbdbb8200	-0.09155655
22	0xbdca9b21	-0.0989287
23	0xbd0a1f37	-0.033721175
24	0x3c4a093a	0.012331301
25	0xbdf0f804	-0.11766055
26	0x3d34a901	0.044106487
27	0x3d897a1f	0.06712746
28	0xbcedc85c	-0.029026203
29	0xbdc3f982	-0.09569074
30	0xbc879dd5	-0.016554752
31	0x3ce85ee2	0.028365556
32	0x3e222855	0.15835698
33	0xbe1e7ef3	-0.15478115
34	0xbd5a6075	-0.053314645
35	0xbc8d6338	-0.017259225
36	0x3da5440c	0.080696195
37	0x3d3778e8	0.04479304
38	0x3d2ebcce	0.042660527
39	0xbd6bc44e	-0.057560258
40	0xbcf1ea81	-0.029530765
41	0x3c43922c	0.011936706
42	0xbcd81ab7	-0.026379926
43	0x3c4ab1a4	0.012371454
44	0xbd24e0ca	-0.040253438
45	0x3dd13bda	0.10216494
46	0x3d937626	0.072002694
47	0x3d53d6ca	0.05171851
48	0x3db6fe89	0.089352675
49	0x3c0a1148	0.008426972
50	0xbd1cfc3d	-0.03832649
51	0x3dd2c471	0.102913745
52	0xbcf1db7b	-0.029523602
53	0xbd5d8cdd	-0.054089416
54	0xbd90a84e	-0.070633516
55	0x3cb96e54	0.022635616
56	0x3d1820b7	0.037140574
57	0xbd84f506	-0.06492047
58	0x3c795174	0.015217174
59	0x3dce3447	0.10068565
60	0xbcd88340	-0.026429772
61	0xbcc6ae14	-0.024252929
62	0x3d121af1	0.035670225
63	0x3ce4714e	0.02788606
64	0x3e35fcec	0.17772263
65	0xbcdc2c69	-0.026876645
66	0x3cdc4b47	0.026891364
67	0x3dabe63c	0.08393523
68	0x3cf1097f	0.029423473
69	0x3b135c3e	0.00224854
70	0x3da781c6	0.08179049
71	0xbc55e710	-0.013055578
72	0x3beaa887	0.0071612033
73	0x3cf1ea35	0.029530624
74	0x3e0fbeae	0.14037582
75	0x3c2a9c7d	0.010413286
76	0x3b61e5de	0.0034469287
77	0xbd123c01	-0.035701755
78	0xbd6a93c4	-0.057269827
79	0xbe244d52	-0.1604512
80	0x3c9012d9	0.017587112
81	0xbdc139cf	-0.09434854
82	0xbd5659b7	-0.052331652
83	0x3ca9189e	0.020641621
84	0x3d97dc6a	0.074150875
85	0xbc4c7f3f	-0.01248151
86	0xbd464197	-0.048402395
87	0x3da6b059	0.081391044
88	0x3dd7677f	0.10517787
89	0xbdb34b67	-0.08754616
90	0x3e069a96	0.13144907
91	0x3e362837	0.17788778
92	0xbd4b9d1c	-0.049710378
93	0x3c9920c7	0.018692387
94	0xbdaf1e90	-0.08550751
95	0x3cf9d544	0.0304972
96	0xbd9c29c1	-0.076251514
97	0x3cb2b43e	0.021814462
98	0x3d405181	0.04695273
99	0x3e02d2a2	0.12775663

linear_hh.weight f4 [100, 100]
0	0xbe02a3ac	-0.12757748
1	0x3cc30e63	0.023810571
2	0xbd6c897e	-0.05774831
3	0xbd66019b	-0.056153875
4	0xbc84c94d	-0.016209269
5	0xbddf3879	-0.10899443
6	0xbd04d24f	-0.03242713
7	0xbd64e7e4	-0.05588521
8	0xbbd575a4	-0.006514268
9	0x3d3ff0e4	0.04686059
10	0xbe10dd6b	-0.14146964
11	0xbd85ed7a	-0.06539436
12	0xbdd3b9c5	-0.10338167
13	0x3c8c745f	0.017145334
14	0x3d1dd4ae	0.038532905
15	0xbd140234	-0.036134914
16	0x3d236ece	0.039900593
17	0xbdaa2bc0	-0.08309126
18	0x3d72348a	0.059132136
19	0x3d6c0f16	0.057631575
20	0x3c94cf16	0.018165153
21	0xbcb2351d	-0.021753842
22	0xbddc9244	-0.107700855
23	0xbde304f5	-0.1108493
24	0xbd9ec98c	-0.07753286
25	0x3d93cca8	0.072167695
26	0xbd879592	-0.06620325
27	0xbd860b49	-0.06545121
28	0xba43d10e	-0.0007469811
29	0x3cf6e384	0.030137785
30	0xbdd4b189	-0.10385425
31	0xbcee00f8	-0.029053196
32	0xbd09dd1a	-0.033658125
33	0x3d3a57cf	0.045493897
34	0xbd60e8bb	-0.05490945
35	0xbd52eb1b	-0.051493745
36	0x3bb5008d	0.0055237473
37	0xbe2f8a65	-0.17142637
38	0xbd8bc9de	-0.068256125
39	0xbd394cb8	-0.04523918
40	0xbc166445	-0.00917918
41	0x3d7820e4	0.060578242
42	0xbe007958	-0.12546289
43	0xbe0a8c5d	-0.13530107
44	0xbd0c3ee2	-0.034239657
45	0x3be222d0	0.0069011226
46	0xbc44a805	-0.01200295
47	0xbd9bef80	-0.076140404
48	0x3d0cace9	0.034344587
49	0x3d5858da	0.05281911
50	0xbdc3e259	-0.09564657
51	0x3dad6977	0.084673814
52	0xbd04c685	-0.032415885
53	0xbda3349e	-0.0796902
54	0xbad29bde	-0.001606818
55	0xbd0d1987	-0.034448173
56	0xbe213f51	-0.1574681
57	0xbcca461e	-0.024691638
58	0x3c96f7e3	0.018428748
59	0xbdad2ba0	-0.084555864
60	0x3c1cec0d	0.009577763
61	0x3c35d4e4	0.01109812
62	0x3d86cfbb	0.0658259
63	0xbcb99c6b	-0.022657594
64	0xbd8223ca	-0.063544825
65	0xbd2dd69c	-0.042440996
66	0xbc8ff4f7	-0.017572863
67	0xbd50c61d	-0.050970186
68	0xbdbbf845	-0.09178213
69	0xbe0c79fb	-0.13718407
70	0xbde6b5c0	-0.11265135
71	0xbd436c99	-0.04771099
72	0x3de76c5d	0.112999655
73	0x3d51ed06	0.051251434
74	0xbe05bf5c	-0.13061279
75	0xbd3a4422	-0.045475133
76	0xbe244d89	-0.16045202
77	0x3b07f021	0.0020742493
78	0xbb229ee7	-0.0024813951
79	0xbca5785d	-0.020198995
80	0xbe089e0a	-0.13341537
81	0xbe046d94	-0.12932426
82	0xbd91c5f3	-0.07117834
83	0xbdef0e94	-0.116727024
84	0x3c7cb8af	0.015424891
85	0xbdfa7854	-0.12229982
86	0x3dba7411	0.09104169
87	0xbd5d4173	-0.054017495
88	0xbc97513f	-0.018471358
89	0x3c77ecf1	0.015132175
90	0x3d7281a2	0.05920566
91	0xbd447a81	-0.04796839
92	0xbe177442	-0.14790443
93	0xbd814e57	-0.0631377
94	0x3b6604f1	0.003509816
95	0x3d4e62f7	0.05038735
96	0xbb071222	-0.0020610173
97	0xbd941cc0	-0.07232046
98	0xbbc569b0	-0.006024562
99	0xbcf0894c	-0.029362343
100	0xbe52d823	-0.20590262
101	0xbecd420d	-0.40089455
102	0x3e0c720c	0.1371538
103	0x3e146f18	0.14495504
104	0x3dfd80b7	0.12378066
105	0x3e05f3b5	0.13081248
106	0x3e306e00	0.17229462
107	0x3e8a1ed8	0.26976657
108	0xbe0090ab	-0.12555186
109	0x3e8758ea	0.26435024
110	0x3df7ecda	0.12105723
111	0x3e6245e5	0.22096975
112	0x3e0942f5	0.13404448
113	0xbd1ea46b	-0.03873102
114	0xbde6a0d9	-0.11261148
115	0xbc0e8204	-0.00869799
116	0xbe1765a3	-0.14784865
117	0xbdfc47cc	-0.12318382
118	0x3c102400	0.008797646
119	0xbe215a5e	-0.15757129
120	0xbd68abba	-0.056804396
121	0x3e3dff0d	0.18554325
122	0xbdbe16ab	-0.09281667
123	0x3e2769d8	0.1634897
124	0xbdcc1663	-0.099652074
125	0x3e1fc397	0.15601955
126	0xbd47eeb3	-0.048811626
127	0x3e2e046d	0.16993876
128	0xbcdcd91a	-0.02695899
129	0xbd0f56e1	-0.034994964
130	0x3c9c056c	0.019045554
131	0x3d80b1b5	0.06283895
132	0xbe6e0c6b	-0.23246925
133	0x3daf94bf	0.08573293
134	0x3e24c9c9	0.160926
135	0x3e9ebd46	0.3100378
136	0xbe169720	-0.14706087
137	0xbdae74db	-0.08518382
138	0xbddf5505	-0.10904888
139	0xbd2e7079	-0.04258773
140	0x3e3191a8	0.1734072
141	0xbdbf6bbb	-0.0934672
142	0x3e189f51	0.14904524
143	0x3c5402cf	0.012940123
144	0x3e2d8134	0.16943818
145	0x3e9f373e	0.31096834
146	0x3e38ef76	0.18060097
147	0xbdaa0339	-0.08301396
148	0xbe1c4d7d	-0.15263934
149	0xbd9b15c4	-0.07572511
150	0x3d1f545d	0.038898814
151	0x3e28d2be	0.16486642
152	0x3e761604	0.24031836
153	0x3e31709b	0.17328112
154	0x3e11501a	0.14190713
155	0xbe67ab61	-0.2262397
156	0x3e6dcaab	0.23221843
157	0x3e2ba11f	0.16760682
158	0xbec44d0f	-0.3834004
159	0xbdfc58b9	-0.1232161
160	0x3da80cdc	0.08205578
161	0x3a86a26a	0.0010271792
162	0xbe29d1bb	-0.16583912
163	0x3d570ab5	0.052500445
164	0xbe0f907a	-0.14019957
165	0xbc472295	-0.012154241
166	0xbc4ac65f	-0.012376397
167	0xbdfcb12e	-0.12338482
168	0xbdada285	-0.08478264
169	0xbce83f1f	-0.028350411
170	0x3e27ca01	0.16385652
171	0xbdc37652	-0.09544052
172	0xbd9a6b4b	-0.07539996
173	0x3dcfaafe	0.10140036
174	0xbddaf1c5	-0.10690645
175	0xbe18de28	-0.14928496
176	0x3da7f859	0.082016654
177	0x3df746f7	0.12074082
178	0x3dcfdebd	0.10149906
179	0x3e2f1ddd	0.17101236
180	0x3d224069	0.039612208
181	0x3dc50c32	0.09621467
182	0x3c705041	0.0146675715
183	0xbd237b75	-0.03991266
184	0xbedb17e8	-0.42791677
185	0x3cb6841f	0.022279797
186	0xbeb88200	-0.36036682
187	0x3d711b5c	0.058863983
188	0xbda292a0	-0.07938123
189	0xbe33104a	-0.17486683
190	0xbc1921b9	-0.009346419
191	0xbce34968	-0.027744964
192	0x3dc00a47	0.0937696
193	0x3d10d945	0.035363454
194	0x3d4b2ded	0.049604345
195	0xbf054936	-0.52064836
196	0xbc990808	-0.018680587
197	0x3ded2622	0.11579539
198	0xbecd9773	-0.4015461
199	0xbe46f83f	-0.19430636
200	0xbe6a9142	-0.22906974
201	0xbecc9b13	-0.39962062
202	0x3db534cc	0.08847961
203	0x3e9d0baf	0.30672976
204	0x3d9c94ad	0.07645545
205	0x3e318ccb	0.17338865
206	0x3eb9f992	0.3632322
207	0x3dd5782c	0.104233116
208	0x3d859598	0.06522673
209	0xbe0272de	-0.12739131
210	0xbd4f12b6	-0.050554954
211	0x3d7bea57	0.06150278
212	0x3e9c3af1	0.3051372
213	0x3d97c085	0.07409767
214	0xbd394f49	-0.045241628
215	0xbdc00f0b	-0.09377869
216	0xbef3a3bc	-0.47585857
217	0x3e2bc4a7	0.16774236
218	0xbd23b7c5	-0.03997018
219	0x3ca2c5e3	0.01986975
220	0x3e2cbc13	0.1686862
221	0x3cfae85d	0.030628378
222	0x3e2eabf2	0.1705778
223	0xbdc32d67	-0.09530144
224	0xbdaa33d5	-0.083106674
225	0x3e00968f	0.12557434
226	0xbd988d63	-0.074488424
227	0x3e83ac3b	0.2571734
228	0x3d6b8890	0.057503283
229	0xbd463494	-0.048389986
230	0xbde39d48	-0.111139834
231	0xbd71d66f	-0.05904239
232	0xbe265b2a	-0.16245714
233	0xbdeb793d	-0.11497734
234	0x3d824efa	0.0636272
235	0x3ebdb3ef	0.3705134
236	0xbd6e085b	-0.058113437
237	0xbebb34a3	-0.36563596
238	0xbd8f7d08	-0.0700627
239	0x3bcb8078	0.006210383
240	0x3cd03cdf	0.02541965
241	0xbd8add25	-0.06780461
242	0x3e044263	0.1291595
243	0x3df3cf3e	0.11904763
244	0xbd98917b	-0.07449623
245	0x3ee1b827	0.4408581
246	0xbdbb0669	-0.09132082
247	0xbe1631b2	-0.14667395
248	0x3dc51a73	0.096241854
249	0xbdb61061	-0.08889843
250	0xbc3683d2	-0.011139827
251	0x3e312f3e	0.17303178
252	0x3e364e92	0.1780341
253	0xbd47ce8e	-0.04878097
254	0x3c3cbd98	0.011519812
255	0xbd523363	-0.051318537

linear_hh.bias f4 [100]
0	0xbe19e140	-0.15027332
1	0xbd9f2f80	-0.07772732
2	0x3dcac959	0.09901685
3	0x3e49dd87	0.19713412
4	0x3e938785	0.2881433
5	0xbcc070f6	-0.023491364
6	0x3e2bd221	0.16779377
7	0x3dfc1c90	0.12310135
8	0xbc349f58	-0.011024319
9	0x3dad0f36	0.08450167
10	0xbddb54e9	-0.10709555
11	0x3dc8a358	0.0979678
12	0x3e19872b	0.14992969
13	0x3da6d5fa	0.081462815
14	0xbd4fe625	-0.050756592
15	0x3ca3990b	0.019970438
16	0x3d8e1617	0.06937807
17	0xbdf4c514	-0.11951652
18	0x3e054215	0.1301349
19	0x3db9579b	0.090499125
20	0xbd12f29c	-0.0358759
21	0x3e379b62	0.17930368
22	0xbcd8e680	-0.026477098
23	0x3de1e456	0.1102988
24	0x3e15a127	0.14612256
25	0x3ccd799b	0.0250824
26	0xbe1096a3	-0.14119963
27	0x3dcf2aad	0.10115562
28	0x3db6b938	0.089220464
29	0xbadab834	-0.0016686977
30	0xbd21b414	-0.039478377
31	0xbdd38bf3	-0.103294276
32	0x3e0cbd7d	0.13744159
33	0xbd50ff77	-0.05102488
34	0x3e267b74	0.16258031
35	0x3df544e4	0.119760305
36	0x3d79bfd4	0.060973957
37	0x3d8c1d4b	0.06841525
38	0xbd02ddaa	-0.031949677
39	0x3da27e2c	0.079342216
40	0x3d1c0a86	0.038095973
41	0xbda1ebe0	-0.07906318
42	0x3cb0f780	0.021602392
43	0x3de99d88	0.11407
44	0xbc8032db	-0.01564925
45	0xbe19f7f3	-0.15035991
46	0x3de8d2db	0.113683425
47	0x3dc3d941	0.09562922
48	0x3e3188b7	0.17337309
49	0x3e612e04	0.2199021
50	0x3d9802fb	0.074224435
51	0x3cffc248	0.03122057
52	0xbbe0b8a0	-0.0068579465
53	0xbe5e504b	-0.21710317
54	0x3d26e8b6	0.040749274
55	0xbc32b5ef	-0.010907634
56	0x3d47c9c8	0.048776418
57	0x3d9e9fd6	0.0774533
58	0xbd71b110	-0.05900675
59	0xbdf5b3d1	-0.11997188
60	0xbc918b92	-0.017766748
61	0x3d37263f	0.04471421
62	0xbcc94b4e	-0.02457204
63	0xbd96bb97	-0.07359999
64	0x3d026752	0.031836815
65	0x3e11149b	0.14168017
66	0x3df437d9	0.119247146
67	0x3e8173c9	0.2528365
68	0x3d81daf0	0.06340587
69	0x3de5a717	0.112135105
70	0xbbbad8ec	-0.0057021286
71	0x3da56c0a	0.080772474
72	0xbc850402	-0.016237263
73	0x3dacc25e	0.0843551
74	0x3cb3eaad	0.021962488
75	0x3d3f8ac0	0.04676318
76	0xbc86f2ee	-0.01647326
77	0xbca9475e	-0.020663913
78	0x3e599e97	0.21251903
79	0x3e34a28d	0.17640133
80	0xbdad0f30	-0.084501624
81	0x3db5168e	0.088421926
82	0xbddf82c7	-0.10913616
83	0x3e18a2cf	0.14905857
84	0x3b7aa864	0.0038247341
85	0x3ded771c	0.11594984
86	0xbc0d905e	-0.008640377
87	0xbe0f5a53	-0.139993
88	0xbc0fd708	-0.008779295
89	0x3e39b3cb	0.18134992
90	0x3d47ce62	0.048780806
91	0x3e06bde0	0.13158369
92	0x3e233120	0.15936708
93	0x3ac56545	0.0015060088
94	0x3ded5e12	0.11590208
95	0xbda4d89b	-0.08049127
96	0x3e0abf43	0.13549523
97	0x3d5552ba	0.052080847
98	0x3d908971	0.07057465
99	0xbe0fb910	-0.1403544

linear_ho.weight f4 [10, 100]
0	0xbd353dc0	-0.044248343
1	0xbd1ce68d	-0.038305808
2	0xbc7d4840	-0.01545912
3	0xbb9ad1ce	-0.0047247177
4	0x3d41659c	0.047216043
5	0xbd4dbc51	-0.05022842
6	0xbdb6f4f5	-0.089334406
7	0xbc98e09c	-0.01866179
8	0xbda69497	-0.0813381
9	0xbd808a83	-0.06276419
10	0xbd618e8a	-0.055067576
11	0xbd2887e3	-0.041145217
12	0xbbb1cabd	-0.0054257796
13	0xbd6d7e4a	-0.057981767
14	0xbc01545a	-0.007893646
15	0xbdb07d6a	-0.08617671
16	0xbd835dc9	-0.064143725
17	0xbda56403	-0.08075716
18	0xbde2cce6	-0.110742375
19	0xbbc5209a	-0.0060158493
20	0x3d88c657	0.06678455
21	0xbdedd3fb	-0.11612698
22	0xbd3e0eda	-0.046400882
23	0xbd9b2597	-0.07575529
24	0x3d036070	0.03207439
25	0xbcf1d1ed	-0.029519046
26	0x3dbecb2d	0.093160965
27	0xbde75b7f	-0.11296748
28	0xbd6ed494	-0.0583082
29	0x3d2aa4c8	0.041661054
30	0xbd492b47	-0.049113538
31	0x3d7dbc00	0.06194687
32	0xbd9f5d11	-0.07781423
33	0xbd1bc1d7	-0.038026657
34	0x3d3078c1	0.04308391
35	0xbdcf7514	-0.10129753
36	0xbdf07dff	-0.11742782
37	0xbdd490f1	-0.10379208
38	0xbcad9782	-0.021190409
39	0x3cc73299	0.024316119
40	0x3c531a7e	0.012884734
41	0xbd38ef89	-0.045150314
42	0x3d4edec9	0.050505433
43	0x3d60c0f7	0.054871526
44	0xbd56d5e0	-0.05245006
45	0x3ccc7c6d	0.024961675
46	0xbd0b1b7c	-0.033961758
47	0x3d5ac301	0.053408626
48	0xbddb280a	-0.10700996
49	0xbd417925	-0.047234673
50	0x3cac154f	0.021006254
51	0x3c1c75a4	0.009549532
52	0x3da58625	0.08082227
53	0xbdb6994b	-0.08915957
54	0x3d8b30bb	0.06796404
55	0x3c34c61e	0.011033563
56	0xbd6afe17	-0.057371225
57	0x3d8c9976	0.06865208
58	0xbd13fb20	-0.036128163
59	0x3bf9844d	0.0076146484
60	0x3dae9065	0.08523635
61	0x3cc68e8c	0.024237894
62	0x3d8eeff9	0.06979365
63	0x3dbbd6e7	0.09171849
64	0x3d58e9aa	0.052957214
65	0x3d78d553	0.060750317
66	0xbd25fa3a	-0.040521838
67	0xbde6fae9	-0.11278326
68	0xbbb20e6c	-0.005433848
69	0x3a8393a3	0.0010038506
70	0x3b699cf4	0.003564653
71	0x3d9efdcd	0.077632524
72	0xbdf4a5fa	-0.1194572
73	0xbdbee71a	-0.09321423
74	0xbd7990e0	-0.06092918
75	0xbd573b57	-0.052546825
76	0x3cbebac3	0.023282414
77	0xbc472733	-0.012155342
78	0xbd7bc869	-0.061470423
79	0xbd9f8560	-0.07789111
80	0x3cfe7b4d	0.031064654
81	0xbdc810aa	-0.097688034
82	0xbd029f47	-0.03189018
83	0xbd0e74d7	-0.034779396
84	0xbdaeb860	-0.085312605
85	0xbdb71c45	-0.08940939
86	0xbda43571	-0.08018006
87	0xbd91dcda	-0.07122202
88	0xbde4276b	-0.11140331
89	0x3d59572a	0.05306164
90	0xbc3cfbe4	-0.011534665
91	0xbd881809	-0.06645209
92	0xbd903965	-0.07042197
93	0x3d213633	0.03935833
94	0x3b6f0233	0.0036469817
95	0xbc3e9000	-0.011631012
96	0xbd126ff0	-0.035751283
97	0xbc893bba	-0.016752113
98	0xbda0f67a	-0.07859512
99	0x3d539c93	0.051662993
100	0x3d03fceb	0.032223623
101	0x3dfd6b35	0.12373964
102	0x3de31752	0.11088432
103	0xbe68b989	-0.22727026
104	0xbe9fcf87	-0.31213018
105	0xbd37f846	-0.044914506
106	0xbeba3538	-0.36368728
107	0x3e34a261	0.17640068
108	0xbd990c31	-0.074730285
109	0x3ea7735c	0.327052
110	0xbe53cf30	-0.20684505
111	0xbcdd1a48	-0.026990071
112	0x3c9632aa	0.018334705
113	0xbd54cfa0	-0.05195582
114	0xbe811ee8	-0.25218892
115	0x3d909eda	0.070615485
116	0x3dda5ba1	0.10662008
117	0x3e759aa7	0.23984776
118	0xbe6d3f08	-0.23168576
119	0xbe206c54	-0.15666324
120	0x3e1e8575	0.15480597
121	0xbe359e35	-0.17736132
122	0xbe3bf59d	-0.18355413
123	0xbe87b46a	-0.26504833
124	0x3ea0fc98	0.31442714
125	0xbea33580	-0.31876755
126	0xbda6eaa7	-0.08150225
127	0xbe8c9408	-0.2745669
128	0x3c69fc8d	0.014281404
129	0x3db4f40a	0.08835609
130	0x3e213d14	0.15745956
131	0xbe1f6ab2	-0.15568045
132	0xbe644f5c	-0.22295898
133	0x3e1e5595	0.15462334
134	0xbe38d5c6	-0.18050298
135	0xbe497026	-0.19671687
136	0x3d589e1c	0.05288516
137	0xbc671729	-0.014104643
138	0x3d818b25	0.06325368
139	0xbd969d93	-0.07354274
140	0xbde9635f	-0.11395907
141	0x3dd5f70c	0.10447511
142	0x3e3e72bc	0.18598455
143	0x3e017595	0.1264251
144	0xbdfc5a3b	-0.123218976
145	0xbdc7304b	-0.09726008
146	0xbd7b1dac	-0.061307594
147	0xbe3b1265	-0.18268736
148	0xbe16c8c6	-0.14725026
149	0x3e8fca8a	0.28084213
150	0x3c8d6af3	0.017262911
151	0x3e1a64bc	0.1507749
152	0x3e4517b3	0.19247322
153	0x3db4ebfe	0.088340744
154	0x3bd80c05	0.0065932297
155	0xbd8f19e7	-0.06987362
156	0x3e92931b	0.28627858
157	0x3de8d8a0	0.11369443
158	0x3ce06b62	0.027394954
159	0xbdaa8686	-0.083264396
160	0xbe0b50d7	-0.13605057
161	0x3db52280	0.08844471
162	0xbe48fe6c	-0.19628304
163	0x3b03020f	0.001999024
164	0x3e82817c	0.25489414
165	0xbe2d40ed	-0.16919298
166	0xbd8fe209	-0.07025535
167	0xbe9474bd	-0.28995314
168	0x3e3fd267	0.18732606
169	0xbea9ceb8	-0.33165526
170	0x3cf9a8e2	0.030476037
171	0xbd492bab	-0.04911391
172	0x3df8311d	0.121187426
173	0x3d7c59f7	0.061609235
174	0x3dd1aa35	0.102375425
175	0x3dc10b5a	0.09425993
176	0xbe13a735	-0.14419253
177	0xbdd1891e	-0.10231231
178	0xbe1c651d	-0.15272947
179	0xbe3ac71b	-0.18240015
180	0xbd09e0f4	-0.033661798
181	0x3e2c13fa	0.16804495
182	0x3c34e1f2	0.011040198
183	0x3b8b36e5	0.0042484873
184	0xbd042dd9	-0.032270286
185	0xbcd84be3	-0.026403373
186	0xbe780086	-0.2421895
187	0x3f0dde43	0.5541727
188	0x3dc192b3	0.09451809
189	0xbe94f8f4	-0.29096186
190	0x3d63b5eb	0.055593412
191	0x3e40aac9	0.1881515
192	0x3e3dbc3f	0.18528841
193	0xbd481557	-0.048848476
194	0x3ea4243e	0.320589
195	0xbe20f502	-0.15718463
196	0xbd2247ce	-0.03961926
197	0xbeed31d1	-0.4632707
198	0xbe15f0b9	-0.1464261
199	0xbc27985e	-0.010229198
200	0xba40d684	-0.0007356184
201	0xbe859ea6	-0.26097602
202	0xbefbca0c	-0.49177587
203	0x3e2b4d18	0.16728628
204	0x3e07d81a	0.1326603
205	0xbc185545	-0.009297674
206	0x3d903e98	0.07043189
207	0x3e848e3d	0.2588977
208	0xbe76ceeb	-0.2410237
209	0x3e814ecc	0.2525543
210	0xbe0176d2	-0.12642983
211	0x3e21b3cd	0.15791245
212	0xbeb7995a	-0.35859185
213	0x3e5d77d3	0.2162774
214	0xbe965232	-0.29359585
215	0x3e2305a2	0.15920117
216	0x3cf76023	0.030197209
217	0xbde491d4	-0.11160627
218	0x3e1848e7	0.1487156
219	0xbea74642	-0.3267079
220	0xbd563300	-0.05229473
221	0x3e5499a3	0.20761733
222	0xbdb9bc97	-0.09069174
223	0xbdb3c536	-0.087778494
224	0x3e8c888a	0.2744792
225	0xbe1e0743	-0.15432458
226	0xbcd0abeb	-0.025472602
227	0xbc59a3e2	-0.013283702
228	0x3c568eca	0.013095567
229	0x3e1974f5	0.14986022
230	0xbd860ca8	-0.06545383
231	0x3c2911f1	0.010319219
232	0xbe8ec8c9	-0.27887562
233	0xbcbd0c41	-0.023077132
234	0xbe439f20	-0.1910367
235	0xbd27b72f	-0.040946182
236	0xbc1eba3f	-0.009687959
237	0x3e2c701a	0.16839638
238	0x3e0195b0	0.12654757
239	0xbe7028e6	-0.23453102
240	0x3e189802	0.14901736
241	0xbcbb4778	-0.022861227
242	0x3d3be394	0.045871332
243	0x3e349762	0.17635873
244	0xbc4c070d	-0.012452853
245	0xbcc175cf	-0.023615746
246	0x3e0795b4	0.13240701
247	0xbe98d8c4	-0.2985288
248	0x3e3e5560	0.18587255
249	0x3ed2f4e6	0.41202468
250	0x3e0ce7aa	0.13760248
251	0x3e2711d3	0.16315393
252	0xbe985ff5	-0.2976071
253	0x3d87ac93	0.06624713
254	0x3e14ce55	0.14531834
255	0xbdfe71b7	-0.12424033

linear_ho.bias f4 [10]
0	0xbd9e676f	-0.07734572
1	0xbdd0b1cf	-0.10190164
2	0x3e16a2b3	0.14710502
3	0xbccbeb83	-0.024892574
4	0x3deed61f	0.11661934
5	0xbd5dfff5	-0.054199178
6	0xbd559c7c	-0.05215119
7	0xbd4a0869	-0.049324427
8	0xbddab44a	-0.10678919
9	0x3d72ecbf	0.05930781
